mnist.pth (torch, 815936 bytes, 4 tensors)

layer1.weight f4 [256, 784]
0	0xbb7ebbf0	-0.0038869344
1	0x3c8c31d2	0.0171136
2	0x3c144d94	0.009051699
3	0xbc208d78	-0.009799354
4	0xbcab4823	-0.02090842
5	0x3cab26fe	0.020892616
6	0xbc123320	-0.008923322
7	0x3caabcec	0.020842038
8	0x3b1e86e0	0.0024189278
9	0xbc907f73	-0.017638898
10	0x3d0ab9c7	0.033868577
11	0xbd060714	-0.032721594
12	0xbd24a933	-0.040200423
13	0xbc5b0798	-0.01336851
14	0x3cac9609	0.021067636
15	0xba23c3ca	-0.00062471314
16	0x3c75b094	0.014995713
17	0xbcec3765	-0.028835008
18	0xbc964df0	-0.01834771
19	0xbbb5679c	-0.005536033
20	0xbc83ce1c	-0.016089492
21	0x3b673600	0.003527999
22	0xbcdfef75	-0.027335862
23	0xbc88f65e	-0.01671904
24	0x3c02c894	0.007982392
25	0xbd0d1d3c	-0.03445171
26	0xbc6a589c	-0.014303353
27	0x3c5b53c0	0.013386667
28	0xbc2705ca	-0.010194251
29	0x3d02b657	0.031912174
30	0x3cd46aa8	0.025929764
31	0x3d0805cb	0.03320865
32	0xba542517	-0.0008092685
33	0x3c819c2f	0.015821544
34	0xbc90f878	-0.017696604
35	0xbd24a992	-0.040200777
36	0xbcdcebe8	-0.026967958
37	0x3be0b26a	0.006857206
38	0xbdaafdef	-0.08349215
39	0xbe17b9b1	-0.1481693
40	0xbdff4b31	-0.124655135
41	0xbd91998d	-0.071093656
42	0xbe167dff	-0.14696501
43	0xbe1ce605	-0.1532212
44	0x3cebfde8	0.028807595
45	0xbc0069f9	-0.007837766
46	0xbd2cc124	-0.04217638
47	0xbd90f0c7	-0.07077175
48	0xbda7643e	-0.081734166
49	0xbd386055	-0.045013744
50	0xbc91e010	-0.017807037
51	0x3cb41c9c	0.021986298
52	0x3d010a69	0.03150407
53	0xbcdb4bd0	-0.026769549
54	0xba9ac1e0	-0.0011807047
55	0x3cc47e06	0.023985874
56	0x3ce821ce	0.028336432
57	0xbcc8c943	-0.024510032
58	0x3c59aa9c	0.013285305
59	0x3aa8e2a0	0.0012884922
60	0x3c98e004	0.018661506
61	0xbb1ba89d	-0.0023751624
62	0xbd20c060	-0.039245963
63	0xbd473705	-0.048636455
64	0x3d2850dd	0.041092742
65	0x3e28654b	0.1644489
66	0x3dcade1e	0.09905647
67	0xbd72df59	-0.059295032
68	0xbd48d0b4	-0.04902716
69	0xbe0ab9c1	-0.13547422
70	0xbe673d31	-0.22581936
71	0xbeb2f8cd	-0.34955445
72	0xbe8e8a47	-0.27839872
73	0xbe11b62d	-0.14229651
74	0xbd8a9af4	-0.06767836
75	0xbe39a418	-0.18129003
76	0xbdaa6398	-0.08319777
77	0xbbefc9b6	-0.007317747
78	0x3cdfdd42	0.027327184
79	0xbc2c2626	-0.010507142
80	0x3d0c0ffa	0.034194924
81	0x3c61a927	0.013773239
82	0xbc8900c0	-0.01672399
83	0x3cf240e6	0.029571962
84	0xbcaabc93	-0.020841872
85	0x3cc03702	0.02346373
86	0x3db632ca	0.08896406
87	0x3d62ef58	0.055404037
88	0xbc34b873	-0.011030304
89	0x3cdc8f81	0.026923897
90	0x3d7d9f9c	0.061919793
91	0x3d427532	0.047475047
92	0x3e74fccf	0.23924564
93	0x3e2a4041	0.16626073
94	0x3e92d63a	0.28679067
95	0x3e0d98a9	0.13827766
96	0x3dc27a78	0.09496015
97	0xbda4eb87	-0.08052736
98	0xbe49c14a	-0.1970264
99	0xbe19c115	-0.15015061
100	0xbeadc112	-0.33936363
101	0xbea7a965	-0.32746425
102	0xbe506b06	-0.20353326
103	0xbe2a0cbd	-0.16606422
104	0xbcb613bc	-0.022226207
105	0x3bd4b94c	0.0064918157
106	0x3cf5e2a4	0.030015297
107	0x3e1805c1	0.14845945
108	0x3e1d4d04	0.1536141
109	0xbbf15514	-0.0073648784
110	0xbd5feb62	-0.054667838
111	0xbc55735c	-0.013027992
112	0xbafb53e0	-0.0019174777
113	0x3d1f8521	0.03894532
114	0x3dcaf919	0.09910793
115	0x3ddb958a	0.10721882
116	0x3c550ad3	0.013003069
117	0xbcd34872	-0.02579138
118	0xbcf2d3fe	-0.029642101
119	0x3e3afd15	0.18260606
120	0x3c38240e	0.011239065
121	0x3d92dc29	0.071708985
122	0x3e31f031	0.17376782
123	0x3e513c4e	0.2043316
124	0x3e201f91	0.15637042
125	0x3d14ba1c	0.0363103
126	0x3d1cf3b5	0.038318355
127	0x3c73dd25	0.014884268
128	0xbc95492f	-0.018223373
129	0x3d4f5025	0.05061354
130	0x3d48da81	0.049036507
131	0x3c751e0f	0.01496078
132	0x3d55fcbb	0.052242976
133	0xbca2e5be	-0.01988494
134	0x3cba4ad7	0.022740765
135	0x3e2a1797	0.16610561
136	0x3e7d03c9	0.24708475
137	0x3d952212	0.07281889
138	0x3dc6097b	0.09669777
139	0x3af82cb1	0.0018934218
140	0xbb18d670	-0.0023321174
141	0xbc52d81c	-0.012868907
142	0x3dada0ef	0.08477961
143	0x3da88d0d	0.08230028
144	0x3d9a82d6	0.07544486
145	0xbd7c11f1	-0.061540548
146	0x3d854802	0.06507875
147	0x3cc0c46e	0.023531165
148	0xbcf35aae	-0.029706325
149	0x3d0982f8	0.033572167
150	0x3dad5cf9	0.08464999
151	0x3e8d5f7c	0.2761191
152	0x3e64775a	0.22311154
153	0x3e1658f1	0.14682366
154	0xbd2680ee	-0.0406503
155	0xbc8c80f4	-0.017151333
156	0x3dc87f57	0.09789913
157	0x3e383940	0.17990589
158	0x3e420f24	0.18951088
159	0x3dd2681d	0.10273764
160	0x3e48c841	0.19607641
161	0x3e1ad9cd	0.15122147
162	0xbca449ee	-0.020054784
163	0x3c8b60c7	0.01701392
164	0x3de5c190	0.1121856
165	0x3e2336cb	0.1593887
166	0x3e8005fe	0.25004572
167	0x3dc24d4d	0.094874
168	0x3ca39d08	0.01997234
169	0xbc57f601	-0.0131812105
170	0x3d021c69	0.031765375
171	0x3e22f04e	0.15911981
172	0x3cbc069c	0.02295237
173	0xbe01624a	-0.1263515
174	0x3b4485d2	0.002998699
175	0x3d2b5f1a	0.041838743
176	0x3df48d99	0.1194107
177	0x3e6f86e1	0.23391296
178	0x3e754648	0.23952591
179	0x3ea5811a	0.3232506
180	0x3e8dcc9a	0.2769516
181	0x3e538514	0.20656234
182	0x3e1099c5	0.14121158
183	0x3e009700	0.12557602
184	0x3de29ed3	0.110654496
185	0x3e18c9f8	0.14920795
186	0x3d8b8269	0.06811983
187	0xbd3441ab	-0.04400794
188	0x3ca67aee	0.02032229
189	0xbd3566c2	-0.04428745
190	0x3b844fdb	0.00403784
191	0x3ca2367b	0.019801369
192	0x3d246ad9	0.04014096
193	0x3d7000dc	0.05859457
194	0x3d844f90	0.06460488
195	0xbd39fd24	-0.04540743
196	0xbd15d7d7	-0.036582794
197	0x3c365fc3	0.01113123
198	0xbbc44bb3	-0.0059904694
199	0x3cf1bdfc	0.029509537
200	0x3d92aa69	0.071614094
201	0xbe061391	-0.13093401
202	0x3df87fb0	0.121337295
203	0x3d95cc72	0.073143855
204	0x3e1b6988	0.15176976
205	0x3e29498e	0.16531965
206	0x3e4fd6ad	0.20296736
207	0x3e5fe08a	0.21862999
208	0x3e80a516	0.2512595
209	0x3e63673c	0.2220735
210	0x3d9ca1c7	0.07648044
211	0x3daf8667	0.08570557
212	0xbd3e0872	-0.046394773
213	0xbe31eab3	-0.17374687
214	0xbdd88366	-0.10571937
215	0xbe574c48	-0.21025193
216	0xbe1afefd	-0.15136333
217	0xbde400ce	-0.11132966
218	0xbd954efd	-0.072904564
219	0xbc9950b3	-0.018715238
220	0xbd191d1a	-0.03738127
221	0x3e19fa51	0.15036894
222	0x3cad3d59	0.021147417
223	0x3d1587a8	0.036506325
224	0xbbef88e7	-0.007310021
225	0x3d986cea	0.07442649
226	0xbe0b1121	-0.13580753
227	0x3d2e2500	0.042515755
228	0xbbacf2a5	-0.005277949
229	0x3c9a9cd0	0.018873602
230	0x3e5df5a7	0.2167574
231	0x3e0ab8a1	0.13546993
232	0x3e584cd6	0.2112306
233	0x3df5dcd1	0.12005008
234	0x3e2f9f39	0.17150582
235	0x3e339092	0.17535618
236	0x3decc786	0.115614936
237	0x3e283ea1	0.16430141
238	0x3d8e9165	0.069613256
239	0xbd86a31d	-0.0657408
240	0xbe3e7993	-0.18601064
241	0xbe2b7be5	-0.16746481
242	0xbca1bdfa	-0.019743908
243	0xbd829ad5	-0.06377188
244	0xbe191b2a	-0.14951769
245	0xbdc1dbaa	-0.09465726
246	0x3d132e99	0.03593311
247	0xbd16fc0c	-0.036861464
248	0xbd64a535	-0.055821616
249	0x3e70a373	0.23499851
250	0x3df12ee5	0.117765225
251	0x3d275821	0.04085553
252	0x3d59892f	0.053109344
253	0xbd4db7f8	-0.050224274
254	0xbcae8c7c	-0.021307223
255	0x3dfec955	0.12440745

layer1.bias f4 [256]
0	0xbcb4ab9c	-0.022054486
1	0x3d5937d6	0.053031765
2	0x3e4fc21c	0.2028889
3	0xbe171769	-0.14755024
4	0xbd1834c2	-0.03715969
5	0x3d19d9e4	0.037561312
6	0x3da97269	0.08273775
7	0xbb97c297	-0.004631351
8	0x3d2a31e6	0.041551493
9	0xbd667fb5	-0.056274135
10	0xbdb5def2	-0.08880414
11	0x3bc8ba4c	0.006125724
12	0xbd71036f	-0.058841165
13	0x3dac1e35	0.08404199
14	0x3db44b18	0.088033855
15	0x3dc15120	0.094393015
16	0xbdecb2d1	-0.11557544
17	0x3e0ba6e7	0.13637887
18	0x3d63a86c	0.05558054
19	0x3dbef55e	0.09324144
20	0xbd457fb0	-0.048217475
21	0x3d272293	0.040804457
22	0xbd96a7bc	-0.073562115
23	0xbd97b045	-0.074066676
24	0xbde1fc79	-0.110344835
25	0xbd464efa	-0.04841516
26	0xbdefa694	-0.11701694
27	0x3dd9044c	0.10596523
28	0x3e20933b	0.15681164
29	0xbd4c7fba	-0.049926497
30	0xbbab4adf	-0.005227431
31	0x3e03dcd3	0.12877207
32	0x3e08f745	0.13375576
33	0x3d876f2f	0.066130035
34	0x3c70ec47	0.01470477
35	0xbc81add2	-0.015829954
36	0xbaaa1a7c	-0.0012977864
37	0x3d43bce5	0.047787566
38	0xbd97047f	-0.073739044
39	0x3e00964d	0.12557335
40	0x3e2a1956	0.16611227
41	0xbce5294e	-0.027973797
42	0x3d5751df	0.052568313
43	0x3caef79b	0.021358302
44	0xbc512d07	-0.012767083
45	0x3defcce5	0.117090024
46	0x3c8b2138	0.016983613
47	0xbccfe222	-0.025376383
48	0xbb96e737	-0.0046051997
49	0x3e166253	0.14685945
50	0x3df9e7d3	0.1220242
51	0xbd02b504	-0.03191091
52	0x3d1b5408	0.037921935
53	0x3e1d43a3	0.15357833
54	0xbca0b513	-0.019617593
55	0xbde380e4	-0.11108568
56	0x3e4a880d	0.19778462
57	0x3d8bc7b8	0.06825203
58	0x3e096aff	0.13419722
59	0x3ddf439f	0.109015696
60	0xbc879ccb	-0.016554257
61	0xbdd2acb9	-0.102868505
62	0x3e10bb09	0.14133848
63	0x3da253a7	0.07926112
64	0xbd016f9a	-0.031600572
65	0xbe2cb54a	-0.16866031
66	0xbd017849	-0.031608853
67	0xbcc033ff	-0.023462294
68	0x3ccbd9c8	0.02488412
69	0x3c951d16	0.018202346
70	0x3d4a245d	0.049351085
71	0x3d8472f9	0.06467242
72	0xbc861633	-0.016368007
73	0xbdba4412	-0.09095015
74	0x3c0ae3f2	0.008477198
75	0xbd0686fe	-0.032843582
76	0x3dc8ef6c	0.09811291
77	0x3daf42d5	0.08557669
78	0x3e3bd8d4	0.18344432
79	0x3d1a88ad	0.037728
80	0x3d754c12	0.059887
81	0xbd966b01	-0.07344628
82	0x3c8cc95e	0.017185863
83	0xbca7d9a0	-0.020489514
84	0x3dd6cace	0.10487901
85	0xbc5a04ee	-0.013306839
86	0x3d8231b2	0.06357135
87	0xbc35c689	-0.011094698
88	0x3e347280	0.17621803
89	0x3bdd44ff	0.0067526097
90	0x3d84f66f	0.06492316
91	0x3ced2e39	0.028952705
92	0xbc521781	-0.012822987
93	0x3cb59c66	0.022169303
94	0xbda0101b	-0.07815572
95	0x3d1aa95e	0.037759177
96	0x3cd514fc	0.026010983
97	0xbbe3606d	-0.006938985
98	0x3e0c6455	0.13710149
99	0x3ddecc2a	0.10878785
100	0x3e90baa4	0.28267395
101	0xbde5cf26	-0.11221151
102	0x3e13d1b8	0.1443547
103	0x3dfe0c09	0.12404639
104	0x3dbff1a1	0.09372259
105	0xbd85b3a1	-0.06528402
106	0xbcb93b3c	-0.022611253
107	0x3d9c7fdf	0.07641577
108	0xbc5706ca	-0.013124177
109	0xbd9f9d61	-0.077936895
110	0x3d062319	0.032748315
111	0x3db0ecfd	0.08638952
112	0xbd9dc666	-0.07703857
113	0xbc7b19bf	-0.015325963
114	0x3d7a6342	0.061129816
115	0xbc84c342	-0.016206387
116	0xbb7f840d	-0.003898862
117	0xbdac7bc5	-0.08422045
118	0xbd70fb93	-0.05883367
119	0x3d2a82e9	0.041628752
120	0x3e283755	0.16427357
121	0x3d9f47bf	0.07777356
122	0xbd555b49	-0.05208901
123	0x3dcb435e	0.09924959
124	0x3e373dbb	0.17894642
125	0xbd701736	-0.058615886
126	0xbb6a4c7e	-0.003575116
127	0xbdddffea	-0.10839827
128	0xbcd56ad8	-0.026051924
129	0x3e02fbd0	0.12791371
130	0x3de83506	0.113382384
131	0x3ddbfc59	0.10741491
132	0xbd0908ae	-0.033455543
133	0xbda60931	-0.08107222
134	0xbc2eedd0	-0.010676816
135	0x3d244f8e	0.04011493
136	0x3ce5aec4	0.028037436
137	0xbded6a65	-0.11592559
138	0xbdcc2347	-0.09967666
139	0xbe327db8	-0.1743077
140	0x3dadac6c	0.084801525
141	0xbd3e6e15	-0.0464917
142	0x3c8c4a76	0.01712535
143	0x3d830aff	0.06398582
144	0x3e4afe83	0.19823651
145	0x3c170942	0.009218516
146	0x3dae8458	0.08521336
147	0x3d7bd04d	0.061477948
148	0x3c0d9f7d	0.008643982
149	0x3e018862	0.12649682
150	0xbd3a05a6	-0.045415543
151	0xbc901022	-0.017585818
152	0xbce42dd0	-0.027853876
153	0x3e1dbf85	0.1540509
154	0xbdb78d4e	-0.089624986
155	0x3e0095ec	0.1255719
156	0xbd875c51	-0.06609405
157	0x3d99091d	0.07472441
158	0x3e176242	0.14783576
159	0xbda4cdb8	-0.0804705
160	0x3e14f082	0.14544871
161	0xbd99eb4e	-0.07515584
162	0x3d031d00	0.03201008
163	0x3e42b9e1	0.1901622
164	0xbcab3123	-0.020897454
165	0xbc713d93	-0.014724153
166	0xbd612149	-0.054963384
167	0x3db7d1be	0.08975552
168	0x3d5385a6	0.05164113
169	0x3e60b929	0.21945633
170	0xbd483ceb	-0.04888622
171	0xbd759e7f	-0.059965607
172	0xbd039e8f	-0.032133635
173	0x3e0a146e	0.13484356
174	0x3e174a26	0.14774379
175	0x3dd633e4	0.10459116
176	0x3d361168	0.044450194
177	0xbca42a58	-0.020039722
178	0xbd05601d	-0.032562364
179	0x3d3faca1	0.04679549
180	0x3d58f303	0.05296613
181	0x3d3cfd8d	0.046140242
182	0xbdc1cd35	-0.09462968
183	0xbd231981	-0.039819244
184	0x3d0c470a	0.034247436
185	0xbd78d1c3	-0.06074692
186	0x3de45698	0.11149329
187	0x3b610898	0.0034337398
188	0x3e456357	0.19276176
189	0xbd6b4708	-0.057440788
190	0xbd230d46	-0.03980758
191	0xbcb61f4a	-0.022231717
192	0x3d546487	0.051853683
193	0x3dd7273f	0.105055325
194	0x3df829a6	0.12117319
195	0x3d7c1907	0.061547305
196	0x3d78a33b	0.060702544
197	0xbcffee65	-0.031241605
198	0x3d8bd4c1	0.06827689
199	0x3c4c46a3	0.012468013
200	0x3d986de3	0.07442834
201	0x3c80b644	0.015711911
202	0xbc938db5	-0.018011907
203	0xbd21008b	-0.03930716
204	0x3d647719	0.055777643
205	0x3cdc3223	0.026879376
206	0x3d20a907	0.039223697
207	0x3d49f132	0.049302287
208	0xbe5e954f	-0.21736644
209	0xbdd5d0cd	-0.10440216
210	0x3d424d5f	0.047437068
211	0x3e81464b	0.25248942
212	0x3ceba530	0.028765291
213	0xbe0b7351	-0.13618208
214	0xbbcfb9e6	-0.0063392995
215	0x3d1b539e	0.03792154
216	0xbd890e42	-0.066921726
217	0x3ce94f2f	0.02848014
218	0x3d8d3ee1	0.06896759
219	0xbd82e95b	-0.06392165
220	0x3df950c5	0.12173609
221	0x3e142b95	0.1446975
222	0xbd2058ed	-0.039147306
223	0x3dacdbb0	0.084403396
224	0xbd5404bf	-0.05176234
225	0x3d1ee340	0.03879094
226	0x3de37b2b	0.11107477
227	0x3d942b78	0.072348535
228	0x3e179a0a	0.14804855
229	0x3d315d6e	0.043301992
230	0x3d66e7f0	0.056373537
231	0x3df1fe77	0.118161134
232	0xbde2fa4b	-0.11082896
233	0xbd900a08	-0.07033163
234	0xbc5077a2	-0.012723835
235	0x3e6dab5c	0.232099
236	0xbd910485	-0.0708094
237	0xbd60631a	-0.05478201
238	0xbd24e54d	-0.04025774
239	0xbcf9f610	-0.03051284
240	0xbdc65774	-0.09684649
241	0x3bd5d103	0.0065251603
242	0x3c24ccb5	0.010058572
243	0xbc3c4283	-0.011490467
244	0xbd27a03b	-0.040924292
245	0x3da30cf2	0.079614535
246	0xbd080f63	-0.0332178
247	0x3d76c635	0.06024762
248	0x3dab8c89	0.08376414
249	0x3de146d3	0.10999837
250	0x3d3bf31e	0.04588615
251	0x3e4a591b	0.19760554
252	0x3d4d5298	0.050127596
253	0x3ddc0f14	0.107450634
254	0xbdd3ace6	-0.10335712
255	0x3c8613f5	0.016366938

layer2.weight f4 [10, 256]
0	0xbe75fbcb	-0.24021833
1	0xbe8b30be	-0.27185625
2	0x3d63b2e7	0.055590536
3	0xbe1ffdf6	-0.15624222
4	0x3dff6eb7	0.12472289
5	0x3e108415	0.14112885
6	0x3e32b4f7	0.17451845
7	0x3cceb8da	0.025234628
8	0x3dbe8ead	0.09304557
9	0x3d864126	0.06555395
10	0x3d640f20	0.055678487
11	0x3dbbdc7c	0.091729134
12	0xbdf36c08	-0.1188584
13	0xbe8a9b46	-0.2707159
14	0xbd74971d	-0.059714425
15	0x3d8597a6	0.06523065
16	0x3c659c1a	0.014014268
17	0x3e2a7ec4	0.1664992
18	0x3e3856c4	0.18001848
19	0x3e083882	0.13302806
20	0xbd9d7bb1	-0.07689608
21	0x3d8d59df	0.06901907
22	0xbca7919b	-0.020455172
23	0x3e1f8ed9	0.15581836
24	0xbe3b53e5	-0.18293722
25	0x3db6e461	0.089302786
26	0x3ea6154b	0.3243812
27	0x3e80ac74	0.2513157
28	0xbe2c607b	-0.1683368
29	0x3d91f21c	0.07126257
30	0xbca3eeca	-0.020011324
31	0xbdd78db9	-0.10525078
32	0xbea3a0ac	-0.3195852
33	0x3dd300d6	0.10302894
34	0xbead3f14	-0.33837187
35	0xbc90313c	-0.017601602
36	0xbeb18621	-0.34672645
37	0xbeb8c6cb	-0.36089167
38	0xbe864937	-0.26227733
39	0xbe9fde5d	-0.31224337
40	0x3e515c72	0.20445421
41	0x3e32055d	0.17384858
42	0xbcef4cfe	-0.029211517
43	0xbd4b868d	-0.049688864
44	0x3d8a8374	0.06763354
45	0xbedf3089	-0.43591717
46	0x3d3f61dd	0.04672419
47	0x3d843f22	0.06457354
48	0xbe0b9aba	-0.13633242
49	0xbf118162	-0.5683805
50	0xbeba8413	-0.3642889
51	0x3e14f9fe	0.1454849
52	0x3dbddc06	0.09270482
53	0xbe81f6ab	-0.25383505
54	0xbecf5b2e	-0.40499252
55	0x3d4f77c8	0.05065134
56	0x3dbbd8ec	0.09172234
57	0xbe7f2036	-0.24914631
58	0x3da3992a	0.07988198
59	0xbe18c863	-0.14920191
60	0x3d9cf3ef	0.07663714
61	0x3d8e7a60	0.06956935
62	0x3d8a1e33	0.06744041
63	0xbeb2415f	-0.348155
64	0xbf4b1ff3	-0.79345626
65	0x3ddde94d	0.10835514
66	0xbd94d4b1	-0.0726713
67	0xbf215420	-0.6301899
68	0x3e19cf37	0.15020452
69	0x3d0ac702	0.033881195
70	0xbcb29a04	-0.021801956
71	0xbea24de7	-0.3170006
72	0x3c9fc1a6	0.019501518
73	0x3dd7dc45	0.1054006
74	0x3da8dee6	0.082456395
75	0x3e9e49d7	0.3091571
76	0x3e62accb	0.22136228
77	0x3e1f81c4	0.15576845
78	0xbe190c01	-0.14945985
79	0xbeafa308	-0.3430407
80	0x3e103596	0.14082941
81	0x3d029d80	0.031888485
82	0x3d6275fe	0.055288307
83	0x3d6703a4	0.056399956
84	0xbdc59b06	-0.09648709
85	0xbb8ec197	-0.004356574
86	0x3c2dc408	0.0106058195
87	0xbe11f1c7	-0.14252387
88	0xbec6e9af	-0.3885016
89	0xbd12d56d	-0.03584807
90	0x3d9174d9	0.07102365
91	0xbe99d676	-0.30046433
92	0xbf014732	-0.5049926
93	0xbef5dac8	-0.4801848
94	0xbd0cb9c6	-0.034356855
95	0xbea3eb0c	-0.32015264
96	0x3db43071	0.08798302
97	0xbd4ac854	-0.049507454
98	0x3e57bf08	0.21068966
99	0x3dfa171c	0.12211439
100	0x3e35a3ef	0.17738317
101	0x3cf79071	0.030220242
102	0x3d865f30	0.06561124
103	0xbe10f87e	-0.14157292
104	0x3db391a9	0.08768017
105	0x3de16643	0.11005833
106	0xbe93a0e8	-0.288337
107	0xbdcb3441	-0.09922076
108	0xbd8d43ce	-0.06897698
109	0x3d8c9f1f	0.068662874
110	0xbe575dc3	-0.21031861
111	0x3d37f4b1	0.04491109
112	0xbe3d8e1f	-0.18511246
113	0xbf08acbf	-0.5338859
114	0xbe92f22d	-0.2870039
115	0x3dd790d7	0.10525673
116	0x3df22488	0.11823374
117	0xbec534a4	-0.38516724
118	0xbbca35a6	-0.006170946
119	0xbe98f58d	-0.2987484
120	0x3d31e11e	0.04342758
121	0x3e3d130f	0.18464302
122	0xbe891524	-0.26773942
123	0xbcf90fae	-0.030402984
124	0xbd672848	-0.0564349
125	0x3daf1af4	0.08550063
126	0x3e87f9ba	0.26557714
127	0xbd957530	-0.07297742
128	0xbe01f784	-0.12692076
129	0x3e587528	0.21138442
130	0xbcc3e8b4	-0.023914672
131	0xbde66b9a	-0.11250992
132	0x3b456031	0.003011715
133	0x3c8117f4	0.015758492
134	0x3e0a8055	0.13525517
135	0xbda1c00b	-0.078979574
136	0xbec2721b	-0.3797768
137	0x3d6d2391	0.057895247
138	0xbbb3e6fe	-0.005490183
139	0x3e29cdae	0.16582367
140	0x3d97c2ee	0.07410227
141	0x3d8f8519	0.07007808
142	0xbec088dd	-0.37604418
143	0xbe2fa507	-0.17152797
144	0x3dba3823	0.090927385
145	0x3cc94cfb	0.02457284
146	0x3e629330	0.2212646
147	0x3d8d51f1	0.06900395
148	0xbdaf7052	-0.08566345
149	0xbc980e68	-0.018561557
150	0x3db4868b	0.088147245
151	0xbd6230d1	-0.055222336
152	0xbdcc1bba	-0.09966226
153	0x3dde5643	0.10856297
154	0xbd6e8369	-0.05823079
155	0x3d176619	0.036962602
156	0xbef46234	-0.47731173
157	0xbd227076	-0.039658032
158	0xbf02964d	-0.5101059
159	0x3e1fe072	0.15612963
160	0x3caf66e8	0.021411374
161	0xbe336d45	-0.17522152
162	0xbf05842a	-0.5215479
163	0xbdba245f	-0.090889685
164	0x3da4aef6	0.08041184
165	0xbd07a3ee	-0.03311532
166	0xbd0d12ae	-0.034441642
167	0xbdef6130	-0.11688459
168	0xbe55642f	-0.20838998
169	0xbc1df02d	-0.009639782
170	0xbea97244	-0.3309499
171	0xbea6db57	-0.32589218
172	0xbb9f405f	-0.0048599686
173	0x3d2e3bd6	0.042537533
174	0xbefeeb3d	-0.49788848
175	0xbe97146f	-0.29507777
176	0xbe70a7be	-0.23501489
177	0x3d14c945	0.036324758
178	0xbed394b5	-0.41324392
179	0x3e4f81d6	0.20264372
180	0xbd4793c6	-0.048724912
181	0x3dee2f50	0.11630118
182	0x3c80af24	0.015708514
183	0x3ddd0453	0.107918404
184	0xbc18c0e3	-0.0093233315
185	0x3dc25875	0.09489528
186	0x3d14c686	0.03632214
187	0x3d360c1a	0.044445135
188	0xbd00c62b	-0.031438988
189	0xbd0aa055	-0.03384431
190	0xbde81ad4	-0.11333242
191	0xbee7aac1	-0.45247462
192	0xbf09df2f	-0.53856176
193	0xbdcaeab7	-0.099080496
194	0xbe30df96	-0.17272791
195	0x3d758aec	0.05994694
196	0xbe7b3c84	-0.24534804
197	0xbec7fa6d	-0.39058247
198	0x3db6ab7d	0.089194275
199	0x3c621a32	0.013800191
200	0xbf0e2023	-0.55517787
201	0x3e1075ae	0.14107391
202	0x3d998039	0.0749516
203	0xbd723903	-0.0591364
204	0xbc167ab8	-0.009184532
205	0x3e6f86f7	0.23391329
206	0x3e7d86a5	0.24758394
207	0xbd0b5fe6	-0.034027003
208	0x3e273268	0.16327822
209	0xbe690380	-0.22755241
210	0x3e3932b8	0.18085754
211	0xbe8e34bf	-0.27774617
212	0x3db7060c	0.089367
213	0x3e18b2cd	0.14911957
214	0x3c1a68b4	0.009424377
215	0xbded0bc3	-0.11574509
216	0x3d8e73b6	0.06955664
217	0x3d7cce0d	0.061719943
218	0xbe0776be	-0.1322889
219	0x3e04a58f	0.1295378
220	0xbeccb676	-0.39982957
221	0xbe2f74e9	-0.17134441
222	0x3e12c1fb	0.1433181
223	0xbf6691b0	-0.9006605
224	0x3dd37e28	0.10326797
225	0x3e28abac	0.16471738
226	0xbe98152a	-0.29703647
227	0xbd28b675	-0.04118963
228	0x3d9183b7	0.07105201
229	0xbe4a70b7	-0.1976956
230	0xbe9da3c8	-0.30789018
231	0x3d8ebd1c	0.069696635
232	0xbdcc9adf	-0.09990477
233	0x3cd53a5f	0.02602881
234	0x3deaed42	0.114710346
235	0xbc2f27e6	-0.010690665
236	0xbeb2998b	-0.3488277
237	0x3daa7f2b	0.083250366
238	0xbe010539	-0.12599649
239	0xbd10308d	-0.03520255
240	0x3c4ceaa5	0.0125071155
241	0xbec79ba1	-0.38985923
242	0xbe2c1f01	-0.16808702
243	0x3cf13e01	0.029448511
244	0x3d1f45d7	0.038884964
245	0x3e841ba0	0.25802326
246	0x3e5dfdbc	0.21678823
247	0xbed6c3a7	-0.41946146
248	0x3d8a0765	0.06739692
249	0x3d693bde	0.05694186
250	0x3e0608a4	0.13089234
251	0xbe903d07	-0.2817156
252	0xbca1062b	-0.019656261
253	0x3da88019	0.08227558
254	0x3e3cec3d	0.18449493
255	0x3e40ecb1	0.1884029

layer2.bias f4 [10]
0	0xbd881338	-0.06644291
1	0xbd8257f7	-0.06364434
2	0xbd47439d	-0.048648465
3	0xbdd3879d	-0.103286006
4	0x3dfde2ab	0.12396749
5	0x3de83867	0.11338883
6	0x3b5cec69	0.0033710247
7	0xbdee317e	-0.11630534
8	0x3dd4f493	0.10398211
9	0xbd3d5a0b	-0.04622845
