mnist.pth (torch, 815936 bytes, 4 tensors)

layer1.weight f4 [256, 784]
0.021488715 -0.015301747 -0.011046171 0.000608284 0.01393038 0.019339692 0.0054360405 -0.011597656
-0.016425112 0.002757866 -0.00887119 0.0063442774 0.020523919 0.05654066 0.056731924 0.0010193542
0.017517596 -0.0073503293 0.025686726 0.026410524 0.0064299144 0.008397087 -0.030281652 -0.0024518669
-0.0059342086 0.031778958 0.034577724 0.026914757 0.018424135 0.011794392 0.009397715 0.03431296
0.019195171 0.040963273 0.06718868 0.06071353 0.060378328 0.08861809 0.018298795 -0.026655065
-0.04158598 0.012360351 0.1484956 0.11383018 -0.04130652 -0.019706633 0.1130268 0.14154314
0.059900768 0.040261213 0.045298606 -0.020209221 0.023187876 -0.00589779 -0.016996022 0.021100681
-0.010267526 -0.0063918997 0.008369616 0.06066955 0.07413177 0.04441514 0.06597513 0.11844522
0.1810534 0.14738695 0.20289022 0.36879596 0.18301293 0.12017784 0.13569188 0.23106779
0.19187516 0.23610905 0.21028161 0.26408625 0.21081495 0.17643547 0.08886234 0.098089345
0.05929203 -0.039462786 -0.018651469 0.01262176 -0.030044349 0.026945818 0.11950321 0.17716543
0.14384209 0.07828003 0.13925362 0.21499524 0.23269264 0.05319439 0.07149375 0.15768982
0.18831515 -0.035338886 -0.07045555 0.007373098 -0.031262193 -0.044447567 0.06139535 0.07673394
-0.022909611 -0.04732648 -0.013301274 0.024076276 -0.024645057 -0.09572212 -0.011940987 0.03178976
-0.022334684 -0.01633653 0.16357915 0.24213086 0.19365738 0.21519089 0.22299527 0.20613925
0.17480393 0.076184504 0.2670858 0.17600125 0.12826046 0.045469332 -0.047119953 -0.054623697
0.044737194 -0.0030681537 0.07955373 0.1452074 0.007999902 0.041278776 -0.060783163 -0.07878878
0.010381143 0.05842703 -0.03666552 0.00015039505 0.021623228 -0.027389452 0.28552184 0.386576
0.33471557 -0.022976553 0.11444014 0.12838198 -0.09623905 -0.08774936 0.044572096 -0.025178786
-0.0587028 -0.09897787 -0.16016217 -0.13846384 -0.1216284 -0.09046695 -0.044603825 0.11299728
0.12280649 0.18190122 0.13662742 0.22176315 0.07817825 -0.0019109251 0.09074158 0.011165277
-0.017305741 0.07096711 -0.0080401385 -0.009821759 0.0990591 0.06758242 0.08751355 0.10811783
-0.031612862 -0.073667794 -0.009169833 -0.047890626 -0.056821104 -0.049925294 0.019289982 -0.09472132
-0.14365017 -0.2212084 -0.09976436 0.037585527 0.095977806 0.03714672 -0.084005766 0.021048402
0.030551447 0.14164191 0.05080801 -0.006970426 -0.03220508 -0.0085942615 -0.115992166 -0.027927343
0.15920109 0.11472908 -0.033161692 0.039135132 -0.007817643 -0.1349982 -0.093684 -0.010622038
-0.027463011 -0.0381356 0.025942309 -0.068354785 -0.10627705 -0.18201321 -0.11780244 -0.07869471
-0.0050233896 0.09967396 -0.04175238 -0.13089348 -0.12389606 -0.050087016 0.16582717 -0.006752052
-0.00885885 -0.11476926 -0.05837589 0.030105742 0.0144675 -0.055676185 -0.12764828 -0.11598871
-0.16350676 -0.116000675 -0.113932475 -0.08899632 -0.017316997 0.018020188 -0.004560518 -0.04554258
-0.022627227 -0.100056045 -0.028007282 -0.0059268693 0.0498099 0.09277415 0.05987773 -0.09051792
-0.1260144 0.043602515 0.121293224 0.036304504 -0.11709169 -0.23995632 0.06723222 -0.032718293
00000000: 1a09 b03c 2eb4 7abc 00fb 34bc 4075 1f3a
00000010: 403c 643c 466e 9e3c d020 b23b 1804 3ebc
00000020: f58d 86bc 50bd 343b 7858 11bc a8e3 cf3b
00000030: c721 a83c 2e97 673d bc5f 683d da9b 853a
00000040: 1081 8f3c 08db f0bb f86c d23c e25a d83c
00000050: 08b2 d23b f093 093c 3a11 f8bc 80af 20bb
00000060: c073 c2bb a72a 023d 5fa1 0d3d 567c dc3c
00000070: 36ee 963c 443d 413c e0f8 193c bf8b 0c3d
00000080: 313f 9d3c 1bc9 273d 389a 893d c0ae 783d
00000090: 444f 773d 677d b53d 5be7 953c b95b dabc
000000a0: 1056 2abd 1283 4a3c 3b0f 183e cc1f e93d
000000b0: 0731 29bd ce6f a1bc 987a e73d aff0 103e
000000c0: 825a 753d f1e8 243d 088b 393d cf8d a5bc
000000d0: 80f4 bd3c 4042 c1bb 3e3b 8bbc 56db ac3c
000000e0: 2039 28bc 2473 d1bb b720 093c a280 783d
000000f0: 66d2 973d a6ec 353d f81d 873d 6893 f23d
00000100: 1066 393e 9bec 163e 74c2 4f3e d3d2 bc3e
00000110: be67 3b3e cd1f f63d d0f2 0a3e 099d 6c3e
00000120: ec7a 443e 92c6 713e 1054 573e 5036 873e
00000130: e0df 573e 80ab 343e 75fd b53d 11e3 c83d
00000140: 33dc 723d bba3 21bd f7ca 98bc 80cb 4e3c
00000150: 911f f6bc 7abd dc3c 19be f43d db6a 353e
00000160: 574b 133e 4851 a03d 8098 0e3e b627 5c3e
00000170: fb46 6e3e 5ce2 593d 516b 923d 7179 213e
00000180: b0d5 403e 82bf 10bd 004b 90bd 079a f13b
00000190: c90c 00bd a70e 36bd b179 7b3d af26 9d3d
000001a0: f0ac bbbc 69d9 41bd 96ed 59bc 9c3b c53c
000001b0: 6ee4 c9bc f509 c4bd 21a4 43bc fb35 023d
000001c0: 3af7 b6bc 30d4 85bc 4b81 273e 27f1 773e
000001d0: 1f4e 463e 005b 5c3e df58 643e 2b16 533e
000001e0: cdff 323e 9f06 9c3d 78bf 883e ac39 343e
000001f0: b656 033e 0d3e 3a3d da00 41bd 19bd 5fbd
00000200: 593e 373d 1413 49bb 11ed a23d 40b1 143e
00000210: 0512 033c ef13 293d c4f7 78bd 035c a1bd
00000220: ab15 2a3c 2e51 6f3d 962e 16bd 5db3 1d39
00000230: 3223 b13c d85f e0bc eb2f 923e 4aed c53e
00000240: d75f ab3e 5339 bcbc 985f ea3d 9176 033e
00000250: fb18 c5bd f0b5 b3bd 3b91 363d be43 cebc
00000260: 5972 70bd e9b4 cabd 8d01 24be 77c9 0dbe
00000270: 5018 f9bd bc46 b9bd 80b2 36bd 1e6b e73d
00000280: f881 fb3d 5044 3a3e 0fe8 0b3e e115 633e
00000290: eb1b a03d 0278 faba b9d6 b93d 91ee 363c
000002a0: c5c4 8dbc 3457 913d c9ba 03bc 71eb 20bc
000002b0: 7fdf ca3d a768 8a3d 4e3a b33d e16c dd3d
000002c0: 7d7c 01bd 24df 96bd 113d 16bc f628 44bd
000002d0: 3fbd 68bd 777e 4cbd 0606 9e3c 40fd c1bd
000002e0: 0819 13be 7484 62be 4251 ccbd 48f3 193d
000002f0: 0390 c43d 2927 183d 370b acbd b36d ac3c
00000300: 0747 fa3c 940a 113e 0f1c 503d 2c68 e4bb
00000310: 79e9 03bd f2ce 0cbc 4d8d edbd e2c7 e4bc
00000320: 9c05 233e 14f7 ea3d 8ed4 07bd 294c 203d
00000330: 9215 00bc f83c 0abe 66dd bfbd 0e08 2ebc
00000340: 1cfa e0bc 1334 1cbd f784 d43c 98fd 8bbd
00000350: c8a7 d9bd ac61 3abe 6842 f1bd b12a a1bd
00000360: 3f9b a4bb dc21 cc3d 8b04 2bbd f108 06be
00000370: 38bd fdbd 0b28 4dbd 99ce 293e 5140 ddbb
00000380: b624 11bc 250c ebbd 8f1b 6fbd 51a0 f63c
00000390: 1809 6d3c b60c 64bd 3bb6 02be 7d8b edbd
000003a0: 516e 27be c391 edbd 6e55 e9bd b443 b6bd
000003b0: 60dc 8dbc 139f 933c 6670 95bb db8a 3abd
000003c0: bc5c b9bc 2fea ccbd 876f e5bc 2f36 c2bb
000003d0: 7705 4c3d 6000 be3d 5a42 753d 7661 b9bd
000003e0: eb09 01be 8d98 323d 9568 f83d 08b4 143d
000003f0: c5cd efbd 1cb7 75be 0cb1 893d 9e03 06bd

layer1.bias f4 [256]
0.145668 0.15447088 0.032125678 0.053112894 -0.04162937 0.021725323 0.17298755 0.15428682
0.08446292 0.15335637 -0.106965326 -0.03388049 0.0050358973 0.017002815 0.06543792 0.003648357
-0.005613365 0.061460372 -0.08828025 0.034781575 -0.042319182 -0.077980325 -0.03935155 0.08923407
-0.038710937 0.03523298 0.04732162 0.20172042 0.14438379 0.043303072 0.097304314 -0.074009255
0.0051433956 -0.028591985 0.02374952 -0.03722015 0.052890044 -0.03847695 0.08741269 0.100141644
0.009632786 0.0240849 0.26229745 0.083556764 0.054232188 0.1790418 0.08404485 0.00016466875
0.028645052 0.030823348 0.10811029 0.08770216 0.064169265 -0.011561143 -0.023915933 -0.10227723
-0.05233943 0.09122422 0.08970563 0.05469404 0.07269978 -0.04805754 -0.0702037 0.04146403
0.11580343 -0.02098763 -0.031469144 0.14643806 -0.007005699 0.08686337 0.14320214 -0.040230438
0.05279092 0.15620309 0.009481103 -0.14145754 -0.033203866 0.14872368 0.041949138 0.09040264
0.035951488 0.18821828 0.008139554 0.2115874 0.0050844345 -0.11696184 0.018270623 0.12841657
0.08101284 0.014169862 0.014460191 0.093262784 -0.04257039 0.15337439 0.064215116 -0.029201632
0.109486684 0.091439515 0.022639427 -0.14225349 -0.103642985 0.03232153 -0.12925406 0.24413697
-0.012915824 0.047019508 -0.022621468 -0.021426285 -0.05449664 -0.011678513 -0.047980975 -0.080463044
-0.16294086 -0.092620865 -0.022988012 -0.058251422 -0.0064028297 -0.10081141 0.28763586 -0.08311369
0.0017635167 0.05002515 -0.011925636 0.03875055 -0.069067575 0.026880357 -0.022885084 0.001328086
0.13955306 0.077761516 0.055907734 -0.07302072 0.19501309 0.06667209 0.05169653 0.01249998
-0.016141536 -0.043488916 -0.079592995 0.23476668 0.07291681 -0.011524873 0.10551465 0.041860193
-0.012126195 -0.07969216 -0.119233966 0.2351134 0.13399318 0.09715946 -0.00045712452 0.00078982743
0.07381219 0.051619146 0.042004045 0.106108986 -0.2230268 0.14300725 -0.07932045 0.18809633
0.0537856 0.07930356 -0.06134215 -0.07586181 -0.112177774 0.05727964 0.04135632 0.011674383
0.108488314 -0.03681347 0.14651607 -0.17478505 0.061938044 0.013586554 -0.11594908 0.20542733
0.019413924 0.13013849 0.051808346 0.036374662 0.10367983 -0.09816263 -0.04053549 -0.02682916
-0.06592068 -0.14428878 0.014251485 0.041597214 0.0028838392 0.0864604 0.012354893 0.031827103
0.14011532 -0.054967333 0.06026303 0.16038486 0.04859278 0.014955366 -0.057318952 0.17229238
-0.0057977927 -0.06863044 -0.004837093 -0.04525922 0.07540582 0.11490596 0.05064578 -0.01943406
-0.002490074 0.08022812 0.13205133 -0.007942287 0.11645497 -0.04467567 0.0017896 0.18548866
0.075186975 0.03398402 0.010895218 -0.06851265 0.08245902 -0.02801329 0.012849462 0.07103577
0.08553711 0.1519631 -0.018497398 -0.036351822 0.14415069 -0.07727311 0.03583475 -0.07596754
0.12995279 0.100238085 -0.024978407 0.02300962 0.0010474297 0.013722371 0.08524821 0.013510143
-0.07219716 0.031219536 0.048607 0.02067616 0.038401432 0.07817254 0.037560776 0.0138469
0.05397842 0.02504837 -0.006830775 -0.13506554 -0.032085143 0.1296241 -0.0998871 0.011735065
00000000: fe29 153e 9d2d 1e3e 3796 033d e88c 593d
00000010: 8f83 2abd 4ef9 b13c a623 313e 5dfd 1d3e
00000020: e5fa ac3d 7409 1d3e a310 dbbd 45c6 0abd
00000030: 2b04 a53b 7d49 8b3c 5104 863d 4619 6f3b
00000040: 52f0 b7bb dfbd 7b3d 47cc b4bd 2077 0e3d
00000050: e156 2dbd 26b4 9fbd 172f 21bd 5ac0 b63d
00000060: 5c8f 1ebd 7550 103d 51d4 413d cc8f 4e3e
00000070: 58d9 133e 905e 313d 7c47 c73d 2a92 97bd
00000080: ee89 a83b bd39 eabc 5a8e c23c 2874 18bd
00000090: 3ba3 583d 029a 1dbd 6d05 b33d 1017 cd3d
000000a0: d5d2 1d3c b24d c53c da4b 863e cf1f ab3d
000000b0: 9222 5e3d bc56 373e b51f ac3d eeaa 2c39
000000c0: 07a9 ea3c 3f81 fc3c ed68 dd3d 319d b33d
000000d0: 2d6b 833d f36a 3dbc 59eb c3bc b976 d1bd
000000e0: df61 56bd c4d3 ba3d 96b7 b73d dc06 603d
000000f0: 9fe3 943d fcd7 44bd f5c6 8fbd 30d6 293d
00000100: 592a ed3d 40ee abbc cae5 00bd dcf3 153e
00000110: 1090 e5bb 6ce5 b13d 95a3 123e acc8 24bd
00000120: 4b3b 583d b4f3 1f3e a156 1b3c 3fda 10be
00000130: c700 08bd 054b 183e dcd2 2b3d 0525 b93d
00000140: de41 133d 4bbc 403e c45b 053c 5eaa 583e
00000150: 549b a63b b089 efbd 46ac 953c a27f 033e
00000160: 0fea a53d b528 683c 70ea 6c3c 8f00 bf3d
00000170: 4a5e 2ebd 2d0e 1d3e 3783 833d 4338 efbc
00000180: 8e3a e03d a444 bb3d 5276 b93c e6aa 11be
00000190: c642 d4bd 9563 043d 2d5b 04be 0bff 793e
000001a0: e49c 53bc 8797 403d a850 b9bc 2d86 afbc
000001b0: de37 5fbd 3c57 3fbc b387 44bd cfc9 a4bd
000001c0: f8d9 26be 02b0 bdbd 5b51 bcbc 0b99 6ebd
000001d0: d4ce d1bb 3676 cebd 0245 933e 8337 aabd
000001e0: cd25 e73a 2ce7 4c3d be63 43bc e6b8 1e3d
000001f0: 4d73 8dbd 3234 dc3c 8079 bbbc 2c13 ae3a
00000200: ffe6 0e3e 6e41 9f3d 82ff 643d e38b 95bd
00000210: 83b1 473e 608b 883d bebf 533d b7cc 4c3c
00000220: 413b 84bc 6f21 32bd a701 a3bd ad66 703e
00000230: 6955 953d d2d2 3cbc 1118 d83d 9875 2b3d
00000240: f3ac 46bc a535 a3bd f030 f4bd 91c1 703e
00000250: 8235 093e 8afb c63d 37aa efb9 6c0c 4f3a
00000260: d82a 973d 996e 533d 6f0c 2c3d ab4f d93d
00000270: 2361 64be 7e70 123e c372 a2bd 539c 403e
00000280: 4a4e 5c3d e869 a23d e841 7bbd 705d 9bbd
00000290: 76bd e5bd 0e9e 6a3d 3f65 293d e945 3f3c
000002a0: 1f2f de3d b9c9 16bd 4f08 163e dafa 32be
000002b0: bfb2 7d3d 239a 5e3c b676 edbd 8b5b 523e
000002c0: f309 9f3c 0643 053e fd34 543d 99fd 143d
000002d0: 1756 d43d 7d09 c9bd 8b08 26bd d4c8 dbbc
000002e0: 6c01 87bd 70c0 13be 0f7f 693c d761 2a3d
000002f0: cbfe 3c3b 2612 b13d 2d6c 4a3c 235d 023d
00000300: 647a 0f3e 6d25 61bd 5ed6 763d ee3b 243e
00000310: 3909 473d 5a07 753c 47c7 6abd 6a6d 303e
00000320: 69fb bdbb 1e8e 8cbd 7a80 9ebb bb61 39bd
00000330: 5e6e 9a3d d153 eb3d f371 4f3d 2e34 9fbc
00000340: 8230 23bb a44e a43d 7738 073e 5e20 02bc
00000350: f17f ee3d d6fd 36bd 0391 ea3a bdf0 3d3e
00000360: a1fb 993d d432 0b3d db81 323c 5c50 8cbd
00000370: 46e0 a83d 217c e5bc 8d86 523c 347b 913d
00000380: 152e af3d 379c 1b3e db87 97bc a6e5 14bd
00000390: 3d9c 133e 5d41 9ebd 75c7 123d df94 9bbd
000003a0: 5812 053e a049 cd3d 849f ccbc ac7e bc3c
000003b0: e949 893a ccd3 603c 9d96 ae3d a659 5d3c
000003c0: 1bdc 93bd 1dc0 ff3c 2218 473d 0d61 a93c
000003d0: d24a 1d3d ed18 a03d 54d9 193d 1cde 623c
000003e0: 7a18 5d3d 3d32 cd3c b2d4 dfbb 9f4e 0abe
000003f0: b66b 03bd 2ebc 043e 9c91 ccbd 6e44 403c

layer2.weight f4 [10, 256]
-0.13037947 -0.07246755 0.11667814 0.030461565 0.025302522 -0.054502178 0.29103696 -0.071065076
-0.30896723 0.21677534 0.15009028 -0.013914382 -0.45006913 0.13392606 -0.049296916 0.1290997
-0.4052693 -0.17223278 -0.33824265 -0.02612589 -0.051489633 -0.7474718 -0.05143151 -0.13158096
0.11714118 -0.07888739 0.15257128 -0.010012258 -0.056836113 0.029781694 -0.3258567 0.09580836
-0.0048434553 0.14873044 0.070809074 0.0212989 0.104382426 -0.8517642 0.1509764 0.0005039489
0.0080796145 0.016745886 -0.35329333 0.1884515 0.065145634 0.06862911 -0.54876906 0.17010546
0.05360962 -0.579427 -0.5830137 0.23578742 0.14401264 -0.103778936 0.039313998 0.15640245
-0.14992988 0.031271424 0.19272058 -0.505095 -0.3975099 0.13258466 -0.24426271 0.030011095
-0.39530405 -0.25801963 0.14446248 -0.23112194 -0.017298415 0.10580382 0.07277669 0.039771143
-0.114875205 -0.04240661 -0.010446373 -0.399088 -0.114040606 0.11824124 -0.2839203 0.06956001
0.02903996 -0.2567669 -0.13638252 -0.5086674 0.021102175 -0.34653616 -0.20240757 0.060487024
0.023721702 -0.020432586 -0.06183309 -0.24817085 0.03260186 0.10425257 0.03380175 -0.043860544
-0.14139917 0.2445954 0.030272901 -0.47489867 -0.36018166 0.027691366 -0.022046078 -0.06194522
-0.21602827 0.08745945 0.070723206 -0.16469954 -0.15500891 -0.36108315 0.12636648 0.042624865
0.011286777 0.064723246 -0.35265118 -0.13604753 0.053539693 0.30559227 0.10225378 -0.09269166
-0.030031914 0.097961836 0.080350816 -0.14534838 -0.07792214 0.056399178 0.077976055 0.16684878
-0.5181949 0.22641177 -0.10000413 0.0007713528 -0.08764172 -0.05356537 -0.2637285 0.09510323
-0.20749348 -0.16594514 0.12495529 0.09840803 -0.21594699 0.066941045 0.16549507 0.016712373
0.020607531 0.108171105 0.17140779 -0.014862647 -0.119629204 -0.13655818 -0.09059394 0.028740201
0.095366724 0.22400445 0.011534275 -0.006852156 0.1407239 -0.07004815 -0.34371886 -0.22352311
0.27182534 0.18950382 0.07316108 -0.4292248 0.13230607 -0.032210916 0.019040728 0.014428038
-0.096952625 0.0023468237 -0.15522505 -0.06470333 -0.56906474 0.1846533 -0.14413452 0.03610508
0.008308996 0.103878304 0.06006056 -0.03341855 -0.36545718 -0.36649856 0.17283368 0.14407994
0.013962019 0.018025693 -0.43985578 0.032558642 -0.08793824 -0.21731775 -0.15454942 -0.15738358
-0.106007874 -0.036934398 -0.3970547 0.107246056 -0.008670715 0.19118072 0.16968872 0.15239404
-0.5096202 0.016529653 0.102079295 0.27948412 0.09789592 -0.40754128 -0.2893605 -0.27666175
-0.31768358 -0.13846046 -0.09271349 -0.034497533 0.09642362 0.06516479 -0.38528416 -0.1968001
-0.22897643 0.12904172 -0.13546534 0.1491279 -0.23708141 0.17780471 -0.1345138 0.15589264
-0.3297628 -0.2302298 -0.04576263 0.16897295 -0.030744739 -0.22742407 -0.358084 0.051628675
-0.20918797 0.12896073 -0.16097331 -0.31247404 -0.055709723 -0.26170516 0.05639013 -0.030038565
0.072221376 -0.06793122 0.1836946 0.13107464 -0.27621636 -0.40300435 0.20209551 0.12859474
0.37290716 -0.13332035 0.009226685 0.07151371 -0.07031901 0.22568385 -0.5214502 -0.1952039
00000000: 3282 05be de69 94bd f3f4 ee3d 888a f93c
00000010: 3c47 cf3c ad3d 5fbd cc02 953e 918a 91bd
00000020: f430 9ebe 5bfa 5d3e 44b1 193e 26f9 63bc
00000030: 766f e6be ea23 093e 90eb 49bd b632 043e
00000040: 757f cfbe ca5d 30be 242e adbe f605 d6bc
00000050: cbe6 52bd 505a 3fbf d9a9 52bd 29bd 06be
00000060: b7e7 ef3d b68f a1bd a53b 1c3e 740a 24bc
00000070: fccc 68bd bdf8 f33c b0d6 a6be 2c37 c43d
00000080: d9b5 9ebb cb4c 183e 5904 913d 087b ae3c
00000090: 74c6 d53d 380d 5abf 8f99 1a3e 701b 043a
000000a0: 5c60 043c ab2e 893c dde2 b4be 6ef9 403e
000000b0: 136b 853d 6b8d 8c3d 217c 0cbf 2030 2e3e
000000c0: c395 5b3d 5455 14bf 6340 15bf 4272 713e
000000d0: 0d78 133e 0d8a d4bd b707 213d f727 203e
000000e0: 3887 19be 7716 003d 8b58 453e e84d 01bf
000000f0: 6b86 cbbe 46c4 073e 0120 7abe d4d9 f53c
00000100: 4b65 cabe 261b 84be f9ed 133e 3bab 6cbe
00000110: 68b5 8dbc acaf d83d f20b 953d 11e7 223d
00000120: b143 ebbd 8eb2 2dbd 4427 2bbc 4355 ccbe
00000130: 1f8e e9bd 7728 f23d 005e 91be 7b75 8e3d
00000140: 36e5 ed3c f376 83be dca7 0bbe 0738 02bf
00000150: 78de ac3c 306d b1be ee43 4fbe 3ec1 773d
00000160: 0454 c23c 3d62 a7bc b244 7dbd 8020 7ebe
00000170: 8789 053d 5f82 d53d b473 0a3d 1da7 33bd
00000180: f2ca 10be 3777 7a3e e0fe f73c eb25 f3be
00000190: bb69 b8be 01d9 e23c fa99 b4bc 45ba 7dbd
000001a0: 8436 5dbe f11d b33d 54d7 903d ffa6 28be
000001b0: a8ba 1ebe e4df b8be 3766 013e 6997 2e3d
000001c0: 2dec 383c 9f8d 843d b28e b4be 0b50 0bbe
000001d0: 704c 5b3d 9776 9c3e 6e6a d13d 20d5 bdbd
000001e0: 7d05 f6bc 37a0 c83d f88e a43d 35d6 14be
000001f0: a595 9fbd d302 673d e9b1 9f3d 68da 2a3e
00000200: 6ca8 04bf 7dd8 673e f7ce ccbd 9c34 4a3a
00000210: 817d b3bd 5d67 5bbd 6c07 87be 7bc5 c23d
00000220: 2c79 54be 86ed 29be 8fe8 ff3d 268a c93d
00000230: 3521 5dbe 6318 893d 8a77 293e 63e8 883c
00000240: 20d1 a83c d088 dd3d 8685 2f3e 7682 73bc
00000250: 2800 f5bd e8d5 0bbe 5189 b9bd 9270 eb3c
00000260: a14f c33d 6c61 653e 41fa 3c3c 0d88 e0bb
00000270: ed19 103e 6875 8fbd ebfb afbe 3ee3 64be
00000280: b12c 8b3e 4a0d 423e 7ad5 953d 5ac3 dbbe
00000290: 3e7b 073e 98ef 03bd 4dfb 9b3c 9463 6c3c
000002a0: 198f c6bd 2bcd 193b 51f3 1ebe 2e83 84bd
000002b0: 3aae 11bf c115 3d3e 0098 13be ece2 133d
000002c0: 7522 083c 26be d43d 1002 763d e4e1 08bd
000002d0: 341d bbbe b3a5 bbbe 50fb 303e b189 133e
000002e0: f4c0 643c 9eaa 933c c734 e1be 365c 053d
000002f0: f718 b4bd 8b88 5ebe 3442 1ebe 2929 21be
00000300: a81a d9bd 8648 17bd c14a cbbe d2a3 db3d
00000310: 9d0f 0ebc e1c4 433e e1c2 2d3e 2f0d 1c3e
00000320: 7876 02bf 3269 873c f30e d13d 8b18 8f3e
00000330: a87d c83d 40a9 d0be 0f27 94be 9ca6 8dbe
00000340: 6ca7 a2be 94c8 0dbe 92e0 bdbd 494d 0dbd
00000350: bf79 c53d 1e75 853d f743 c5be f785 49be
00000360: cc78 6abe 8323 043e 6db7 0abe fcb4 183e
00000370: 78c5 72be 7012 363e fcbd 09be 52a2 1f3e
00000380: abd6 a8be 5cc1 6bbe 9871 3bbd 3f07 2d3e
00000390: 64dc fbbc dbe1 68be c956 b7be 9778 533d
000003a0: 5f35 56be 480e 043e 30d6 24be 99fc 9fbe
000003b0: e12f 64bd 38fe 85be 56f9 663d 7013 f6bc
000003c0: cde8 933d 861f 8bbd 701a 3c3e 6e38 063e
000003d0: 3b6c 8dbe 9656 cebe 20f2 4e3e 57ae 033e
000003e0: b0ed be3e 2185 08be 862b 173c c875 923d
000003f0: 6a03 90bd ab19 673e c37d 05bf 88e3 47be

layer2.bias f4 [10]
-0.05654823 -0.026567364 0.0047076936 -0.11708948 0.060975794 0.02422837 0.053971753 -0.056943428
0.10531078 -0.026729679
00000000: 1e9f 67bd cda3 d9bc ff42 9a3b 9ccc efbd
00000010: c1c1 793d 937a c63c 7c11 5d3d 833d 69bd
00000020: 2ead d73d 33f8 dabc
